Model/pumpPredictionModel.pt (torch, 76176 bytes, 8 tensors)

model.0.weight f4 [64, 4]
00000000: 9887 253d 5fd1 cb3e 1d08 f73e 0c67 893e
00000010: 54f0 1bbf f5ac 15bf 9447 203f a135 c43d
00000020: 5255 a13e e94d e53e 394e cd3d e7b4 d73e
00000030: 4905 1abf 239b 17bf 08a5 debe e5b5 af3e
00000040: 33db 36bf 6fcc c9bd 0ce8 7b3e 67ca a33d
00000050: e2f3 c5be 228f c3be f4cb 5f3e eea4 cabe
00000060: 30f5 663d 80f1 493d 9cb8 c8be f2a4 f2be
00000070: 6f3f 23bf feb3 a63e bb70 ea3e 47fc f33e
00000080: 2084 1ebe b626 f8be ea9a dabe 38b2 26be
00000090: 6375 183f a43f 39be 1cb6 e0be bfa5 f23e
000000a0: 6f35 b83d 5eb7 38bf d170 d7be e62c c73e
000000b0: 01c7 d63e 9eba bb3e dc4b ce3e 29e0 bb3d
000000c0: 184c adbd f024 9dbd 04a5 543e f461 f0be
000000d0: 9c26 273e 4020 e43d 5efb bb3e 04b4 0fbe
000000e0: ee1b 653e c5f7 243f f30f 883e 3398 87bd
000000f0: 40fd 7f3c 8c58 63be 38f8 e8bd 208a 2cbe
00000100: 96c4 fa3e a9bd 2abe 086f 1e3f 55fb b33e
00000110: 7662 063f 0aad dcbe 4616 bcbe 4727 833e
00000120: bf65 1f3f 6643 cdbe 07af b5bd 4e1a e13e
00000130: 9857 5b3e 5683 c43e 0433 d5be f82c dbbd
00000140: 62a3 323f ddbd 8f3e d7ab b23d 82df 053e
00000150: 20b2 843e cc95 09be 1aba 893e e0d9 e6be
00000160: ec33 0e3e 5094 413e b087 47bd 88d5 8ebd
00000170: 7e14 c83e 6eec e83e b8e5 963d 2216 f2be
00000180: 40c3 d23e 163c c2be 8457 89be a666 acbe
00000190: 2c6f 24bf 7f9d 21bf 4845 1a3f 290d c63e
000001a0: 273e d73e 3f28 a63d 76b1 603e fff3 8b3d
000001b0: cba1 2a3f 25a0 2f3d 6b36 aabe 66c4 e13e
000001c0: e5e5 2dbf c47e bfbe 53ce 2fbe 0ee9 a83e
000001d0: a74e 2c3f c755 ee3e 96f2 013f e455 373e
000001e0: 2065 f1be 6023 93bc 34da 643e 6a48 aebe
000001f0: ca6f e33d 0f78 fe3e 3ba5 a5be 4198 9e3e
00000200: 4c72 46bf ff73 8f3e 545d eabe c9b3 d93d
00000210: 69ae 27bf 5454 483e ebc8 38be dd3d 983d
00000220: 5051 54bd f0a8 cabe 6040 c43c 64e7 edbe
00000230: e050 08bf 545b ccbe ac95 f83e bdab 6b3d
00000240: e9b4 18bf 4d33 81be 1397 d43e fee7 303e
00000250: 007e fcba 0ce6 a3be fe5e dc3e 80a2 51bd
00000260: 4eb7 85be 00b3 583d 7885 643e 0c5f e7be
00000270: dc28 55be 8e89 993e 82b5 b53e 54d2 bbbe
00000280: e022 c23d a054 0e3e 627b debe cc34 9cbe
00000290: 137c 293f 4371 d2be 259a 95be b817 883e
000002a0: a463 c13e 3e37 31bf c938 1e3f fe01 dcbb
000002b0: 0440 393e 67ac 4a3e 4dff 1d3f d323 be3e
000002c0: 9423 54be f0d8 90bd cca9 0dbe 5c17 9abe
000002d0: 907f 18bf 6a3b c13e 97d4 fcbe 684f 963e
000002e0: bb1e ee3e d0c0 0d3f 6cac 0ebf 56c8 b83e
000002f0: c80a 09bf d904 6cbe e742 113f d3e2 533e
00000300: 3470 b4be 7097 ac3d 70be f7bd febb d3be
00000310: 28b2 f13e b52f e03e 766c dd3e 7f30 783e
00000320: 1a39 b43e 40fa c33c e27e f5be 0064 c3bd
00000330: 4515 ce3d 030c 263e 48eb ebbe 428f 063f
00000340: 40d7 7f3e c8d1 9cbe 506b f9be 4034 4dbe
00000350: 9f65 183f af8d 163f 2274 ae3e b579 15be
00000360: 0601 ce3e 78f8 313f 2f3a f73e 8a2d ba3e
00000370: 69b6 153f 0ab6 ffbd cc2b ac3c 1ff1 9f3d
00000380: 844b 08be 68bb 353e f053 79bd f4bf 09be
00000390: 6604 883e 7467 5ebe 10ed c3bd 8c65 96be
000003a0: 250e af3e 0a74 883e 103c 1ebf 2edd 0a3f
000003b0: fdf7 1fbf 126f 2bbf 27e6 293f 2fae d73d
000003c0: af5f b53e 13c9 dfbe adfc bb3e 2c42 5f3e
000003d0: 0468 21bf 543c 303e 9fa3 8abe 8732 c03e
000003e0: 6efe 093f 3a33 14bf 531b 30be 7443 ee3e
000003f0: 54ab 503e a085 e43c 6c8d af3e ea29 e1be
0.040412515 0.39808175 0.48248377 0.2683643 -0.60913587 -0.58467036 0.6260922 0.095805414
0.31510407 0.44786003 0.100246854 0.42130205 -0.60164315 -0.59221095 -0.43485284 0.34318462
-0.7142822 -0.09853446 0.24600238 0.079975896 -0.3866263 -0.3819514 0.21855146 -0.39578956
0.056386173 0.049302578 -0.39203346 -0.47391468 -0.63768667 0.32559198 0.45789132 0.4765341
-0.15480089 -0.48467034 -0.42696315 -0.16278923 0.5955412 -0.18090683 -0.43888938 0.4739208
0.08994567 -0.72154796 -0.4207826 0.38901442 0.41948703 0.36665815 0.4029225 0.091736145
-0.08461779 -0.07673061 0.20766073 -0.46949732 0.16323322 0.11138964 0.36715215 -0.14033514
0.22373936 0.64440566 0.26574668 -0.066208266 0.015624344 -0.22201747 -0.11375469 -0.16849566
0.48978108 -0.16673912 0.6188817 0.3515269 0.5249399 -0.43100768 -0.36735743 0.25615904
0.6226463 -0.40090483 -0.088712744 0.4396538 0.21420133 0.3838145 -0.41640484 -0.107019365
0.6978055 0.28074542 0.08724182 0.13073543 0.2591715 -0.13436049 0.26899797 -0.450881
0.13886994 0.18904233 -0.048713386 -0.069743216 0.39078134 0.45492882 0.07368034 -0.4728251
0.4116459 -0.37936467 -0.26824582 -0.33672065 -0.64232135 -0.63130945 0.60261965 0.38681915
0.42039606 0.08113145 0.21942696 0.06833648 0.66653126 0.042877335 -0.33244643 0.44095153
-0.67928916 -0.37401402 -0.1716855 0.32990307 0.67307514 0.46549818 0.5076078 0.17903858
-0.47147465 -0.017961204 0.22348863 -0.34039623 0.111053064 0.49700972 -0.32352623 0.30975536
-0.77518153 0.28018185 -0.4577433 0.106299944 -0.65500504 0.19563419 -0.18045394 0.074336745
-0.05183536 -0.39582014 0.023956478 -0.464656 -0.53248405 -0.39913428 0.4855169 0.05753683
-0.59651047 -0.25234452 0.4152151 0.17275998 -0.0019263625 -0.3201145 0.43041223 -0.051180363
-0.26116413 0.052905083 0.2231654 -0.45189703 -0.20816368 0.29987758 0.35490042 -0.36683905
0.09479308 0.1389947 -0.4345351 -0.3050903 0.6620495 -0.41102037 -0.29219165 0.26580596
0.37771332 -0.6922492 0.618054 -0.0067141047 0.18090826 0.19792329 0.61717683 0.37136707
-0.20716697 -0.070726275 -0.13834304 -0.30095947 -0.59569645 0.37740642 -0.49380943 0.29357457
0.4650782 0.55372334 -0.55731845 0.36090344 -0.53532076 -0.23048724 0.5674271 0.20691995
-0.35241854 0.08427322 -0.1209687 -0.41354364 0.47206235 0.43786398 0.43246812 0.2423725
0.35199815 0.02392304 -0.47948366 -0.09540558 0.100626506 0.1621552 -0.46077943 0.52562344
0.24984455 -0.306288 -0.48714685 -0.20039463 0.5953006 0.5880994 0.34072977 -0.14597209
0.40235156 0.6951976 0.48286578 0.3636287 0.5848146 -0.12485893 0.021016978 0.07809662
-0.13310057 0.17747271 -0.060871065 -0.1345213 0.26565856 -0.21719152 -0.095667005 -0.2937435
0.3419048 0.2665103 -0.618104 0.54243743 -0.62487775 -0.66966355 0.6636681 0.1053127
0.35424563 -0.43708095 0.36716214 0.21802586 -0.6304934 0.17210513 -0.27077958 0.3753855
0.53903854 -0.57890666 -0.17197923 0.46535838 0.20377856 0.027895749 0.34287584 -0.4397729

model.0.bias f4 [64]
00000000: 02ee 1a3f 49ce 8e3d 5686 003e c1b4 66bc
00000010: 3093 b73e 80df 633e e0f9 083e 05d1 fb3e
00000020: 802f 3c3d dd53 73bd f63e f4bd fe98 fb3c
00000030: 629f 9abe 30f6 f4be 0053 0fbf 4011 edbc
00000040: bfcd 813e 409d f4bd f20a a63e 5054 5c3e
00000050: 85fd a5bd a855 02be 2054 f83c b4ea 7c3e
00000060: a8f9 f4bd 0a5d ccbe eef8 93bd 48e3 74be
00000070: 438c 943e 7779 ad3d 4038 773d 946e cd3d
00000080: dda9 433d 663e 053f 48bf ea3d 59d1 0f3f
00000090: 11c5 64bc 1054 f2be e420 723e 90d8 873e
000000a0: 88ad 983e b68e 12be 3856 ca3d d077 c93e
000000b0: 600c 543d 00f1 38be 4f94 33be 4cc5 1cbe
000000c0: b022 09bd 0e6a a6be 1ab8 cabe 49d3 b73e
000000d0: 70f0 96bd 0749 073f 4535 763e c49c af3e
000000e0: b8ea 903e 6012 d13e 902a 0e3f 0d95 773e
000000f0: 9374 013f 3682 ed3e b12b a7be e0aa 51bd
0.6051942 0.069729395 0.12551245 -0.014081181 0.35854483 0.22253227 0.1337657 0.49182907
0.045943737 -0.05940615 -0.11926071 0.0307126 -0.30199724 -0.47844076 -0.5598602 -0.02893889
0.25352284 -0.119440556 0.32430226 0.21516538 -0.08104996 -0.12727988 0.030313551 0.24698907
-0.11961681 -0.39914733 -0.07225214 -0.23914826 0.2901326 0.08470433 0.06035638 0.10030857
0.047769416 0.5204834 0.11462265 0.56178814 -0.013963 -0.4732976 0.2364536 0.26532412
0.29819894 -0.14312252 0.09879726 0.39349222 0.051769614 -0.18060684 -0.17537044 -0.15309638
-0.033480346 -0.32502788 -0.39593583 0.35903385 -0.073700786 0.52845806 0.24043758 0.3429929
0.28304076 0.40834332 0.55533695 0.24177952 0.50568503 0.46388406 -0.3265052 -0.05118835

model.2.weight f4 [128, 64]
00000000: 34c3 563e 2442 a53e 179b 9fbb c576 bdbd
00000010: 8088 903e 0a6a d5bd 6814 54bd 7dd6 163e
00000020: 9e59 d3bd c7aa ba3c b0b7 19bd 6425 3e3e
00000030: 16e0 8f3d 7071 82bd 3e31 6dbe e05c eebb
00000040: 826a 1a3e 0017 f4bd a9c0 6ebd 16be c63d
00000050: 208d 4cbe 40b4 1d3c 18d9 eabc 1ae4 a93d
00000060: c82f c43c 8af8 913d d31f 6bbd d25d 49be
00000070: f92e d23d a788 81bd 2c33 fe3d fb20 06be
00000080: 797d 39bc bbbd bebd 006c 2d3c 682f 743e
00000090: fd40 ec3d 36d9 96bd 9ec2 ab3d 888d dcbc
000000a0: a6b3 f2bd 8a89 6ebd 61ef ecbd 62f6 053e
000000b0: d0bd 823c 343e 203c 77d5 fabd 795a 503e
000000c0: e0e3 1c3c a11a 3e3e 28b4 a33c 7813 a13b
000000d0: b070 d6bc 0748 11bd 7c9e 8c3d 7d9e a7bd
000000e0: 8097 513b 9cc0 c93d 6ca4 a2bd cec4 463d
000000f0: 9012 b63d 1424 e23d 7c22 0cbd 2867 4f3d
00000100: 20bb 6abd 26fa 95bd 960a 91bd f02a 93bc
00000110: 20dd 553d 086d fcbd a816 c03c fc71 00bd
00000120: 5e14 db3d f8db 6e3d 24bb 6a3d 601b fb3d
00000130: 4c36 bfbd f6f4 9f3d d035 ec3c c4ec 193d
00000140: d8e1 a7bc 48e8 b93d a0c0 dfbc 7834 a93c
00000150: 8090 24bd 6cc6 68bd 2493 88bd 62d3 afbd
00000160: 1616 f3bd ec81 3dbd e029 da3c 8816 243d
00000170: 9671 a8bd d819 fe3d 2a36 87bd b09b 073c
00000180: 50d5 76bc 082a 37bd 6246 dc3d a01d dfbb
00000190: a046 fbbc ae1b f03d e06c 8f3b 7cfb cf3d
000001a0: e8f0 ca3d c404 27bd f042 be3d 6c61 f7bd
000001b0: d491 e33d 8078 bf3b 8cf6 263d aca0 d33d
000001c0: d8b8 5dbd 8c57 b93d 384c 49bd 6079 c6bc
000001d0: 8a44 d83d fc43 12bd bc96 e9bd 3033 1fbc
000001e0: 2ec2 f1bd e04c 7d3d 3e26 dbbd 60fd c03b
000001f0: 0e9e 8fbd 084b a53c 049f b23d 722f 9ebd
00000200: 16be c9bd 43b5 dabd 742c c4bd fcea 03be
00000210: e7d1 f0bd a059 823c 5865 c5bd ca45 4dbc
00000220: 5836 673d 5eb4 e8bd cf5c d43c 789b ab3d
00000230: 988c f4bc 46f8 f9bd d42c 343d 10ac b73d
00000240: 4669 10bd bad5 07bc 5997 7c3d e05c 7bbc
00000250: 0ddf ab3d 8c9d a8bd 64ef 033d 20a1 db3b
00000260: 9838 e5bc a700 d7bd 21f9 703d 5558 473c
00000270: b8e4 b3bd 3f58 b5bd 309e f8bd 7255 993d
00000280: 167a a2bd 1ecc e53d e889 d5bc 1c33 3f3d
00000290: 5893 98bd e488 573d 80f1 413c 703b b83d
000002a0: f647 a23d cc28 253d 62e4 01bd 8975 f4bd
000002b0: f09e 4ebc df86 a3bd d93c 663c 3a94 7f3d
000002c0: 2882 0e3d 1b7c 4a3c 507f 9c3d 7d78 293d
000002d0: f0e3 74bc e9d7 613d 301e da3d 4903 2f3d
000002e0: 04a0 e6bd b4dc 093d 5bc6 fdbc 22e6 4abd
000002f0: 058c e03d e3a4 cc3d cd5c 9fbc b0e5 5ebc
00000300: 62d8 343d 0f1e 9bbe 173d 763d f12d f8bd
00000310: a741 9bbd b0ef 693d 320b cdbd 188c f83c
00000320: 905e 9dbc 9b30 5f3e 94d2 1a3e cf38 e33d
00000330: 3a01 973d 7a83 b93d b2dc 9e3e 0a6d d7bd
00000340: 0045 11bc 18e0 3a3d b6ab 303d 00b8 b7ba
00000350: 8cf6 6e3e f46a 97bd 88df da3d 045c 30bd
00000360: c632 fdbd 063e edbd 61f8 113e 5655 203e
00000370: 8bdb 8abd d0fb 213c d0e3 11bd d6cf 5d3c
00000380: f743 6a3d 39e0 8a3d f0a0 d0bd 88f8 80be
00000390: 523b 60be 9802 1d3d 8012 853a 0448 e93d
000003a0: 5cd7 b73d f438 1c3e 04b2 d83d 3c67 20bd
000003b0: 78de dd3d 8cce 80bd 401a 173e 000c 79be
000003c0: b0e1 373c 235c 603d 4067 b5bd 4eb5 313e
000003d0: d8aa 05bd 0a6c 8f3e 1ddb f0bc a042 fd3d
000003e0: d054 793c 50d9 22bd 692e 493e 27b4 73be
000003f0: d4ce 323d 6248 6c3d 7820 4f3e f44e 7ebd
0.20972902 0.32277024 -0.004870783 -0.09251169 0.2822914 -0.10420616 -0.051777273 0.14730258
-0.103198275 0.022786511 -0.037528694 0.18568951 0.07025163 -0.06369293 -0.23163316 -0.007274255
0.15079692 -0.119184494 -0.058289204 0.09704225 -0.1997571 0.0096254945 -0.028667971 0.0829546
0.023948565 0.07127483 -0.057403397 -0.19664696 0.102628656 -0.063248925 0.12412104 -0.13098519
-0.011321419 -0.09313532 0.010584831 0.23846209 0.11535833 -0.073656484 0.0838673 -0.026922956
-0.118506715 -0.058236636 -0.115690954 0.13082269 0.01595965 0.009780455 -0.122477464 0.20347013
0.009575814 0.18564846 0.019983366 0.004915651 -0.02617678 -0.03546908 0.06866166 -0.08184526
0.003198117 0.098511904 -0.07941517 0.04852753 0.08890259 0.110420376 -0.034212574 0.050635487
-0.057307363 -0.07323103 -0.07082097 -0.01796481 0.052212834 -0.123254836 0.023448303 -0.031358704
0.10697244 0.058315247 0.057307377 0.12261081 -0.09336528 0.078103945 0.028834254 0.037579313
-0.020493433 0.09077507 -0.02731353 0.020654902 -0.04017687 -0.056829855 -0.0666869 -0.0858524
-0.11869447 -0.04626648 0.026631296 0.04006055 -0.0822479 0.12407273 -0.06602128 0.008276865
-0.015065506 -0.04471782 0.10755612 -0.0068089515 -0.030673325 0.117240295 0.0043769926 0.10155389
0.099092305 -0.04077603 0.09290111 -0.120791286 0.11111799 0.005843222 0.04076247 0.1033338
-0.05413136 0.09049901 -0.049144953 -0.024227798 0.10559948 -0.035709366 -0.114057034 -0.009716794
-0.11804615 0.06184089 -0.107006535 0.0058895797 -0.070125684 0.02017738 0.08721736 -0.07723893
-0.09850709 -0.10679104 -0.09578791 -0.12882608 -0.11758786 0.015911877 -0.096384704 -0.012528846
0.05644831 -0.11362527 0.02592316 0.08379263 -0.029852197 -0.122055575 0.043988064 0.08968365
-0.035256647 -0.0082907025 0.061667774 -0.015341967 0.08392153 -0.08233175 0.032210723 0.006702557
-0.027981088 -0.10498171 0.058831338 0.012167056 -0.08783859 -0.08854722 -0.12139547 0.074870005
-0.07933442 0.11220573 -0.026066735 0.0466796 -0.074499786 0.052620783 0.011837363 0.08995712
0.07923882 0.04032211 -0.031711943 -0.119364806 -0.012611136 -0.07984709 0.014052593 0.06239722
0.034792095 0.012358691 0.076414704 0.041374672 -0.014946923 0.05513755 0.10650289 0.042727742
-0.11260989 0.033657745 -0.030978372 -0.049535878 0.109642066 0.09992387 -0.01945343 -0.013604566
0.04415167 -0.3029637 0.060116854 -0.12118138 -0.075808816 0.05711335 -0.10011901 0.03034024
-0.01921013 0.21795885 0.15119392 0.1109482 0.07373281 0.0905828 0.31027752 -0.105188444
-0.008866549 0.04562387 0.043132506 -0.0014016628 0.23336238 -0.073934466 0.106871665 -0.043056503
-0.123632 -0.11584096 0.14254905 0.15657553 -0.06780156 0.009886697 -0.03561765 0.0135383215
0.057193723 0.06781048 -0.101869464 -0.25189614 -0.21897629 0.03833255 0.0010152608 0.11390689
0.089766234 0.15256101 0.10580829 -0.039160952 0.10833448 -0.06289396 0.14756107 -0.24320984
0.011223242 0.05477537 -0.08857584 0.17354318 -0.032633632 0.28012115 -0.029401356 0.12366223
0.015217975 -0.039758027 0.1964661 -0.23799191 0.043654278 0.057686217 0.2022723 -0.062087014

model.2.bias f4 [128]
00000000: 3b72 0c3e 1e83 e8bd 4607 943d 794e dabd
00000010: e924 01bc b558 113d 86ae 883d fd88 303d
00000020: c26b aabd ced7 403e a20e b83d 958f 273e
00000030: 5615 433d e081 313e 16fb 933d 898e 013d
00000040: b86d 2d3d cc79 0c3d 9c6e 7d3d 90e1 87bc
00000050: e539 943b e2f6 aabd 62a5 bbbd f2e3 adbc
00000060: 4807 e63d 623f 9bbd dfd5 02bd 7fb5 e63d
00000070: 8d76 043e e842 e7bd 6e98 783d a571 f23d
00000080: a0d4 e1bb 09a6 a93d cc12 40bd e535 c93d
00000090: fbb3 b83a fab8 033e c6d1 c43d 1b40 483d
000000a0: c0f5 963d 652f e3ba c7a6 5a3c b6cb 753d
000000b0: 2603 043d ca82 b63d a4a4 c73d 237d 453e
000000c0: ac98 133e 3aa4 f13d d9c6 fd3d 246d f8bd
000000d0: 4401 39bd ddd1 1bbc 6ba0 ce3d 7c13 05bd
000000e0: c6f3 ae3d a93e 863c a19b 763d 2106 c83c
000000f0: d2c0 90bd ccd8 d5bd 9ef4 e6bd 82de 583e
00000100: d898 edbc e4aa e03d d9e3 9cbd 0081 643c
00000110: a595 82bd 0036 8ebd 8a1b b8bd a516 2e3e
00000120: 4480 b3bd 311a b83c a1c0 97bd c8e3 7dbd
00000130: 2703 8bbd 70c5 4dbd f93f 853c 7e28 9fbd
00000140: a515 103e 5a3a 2b3e bdb2 203e 99c6 473e
00000150: c7ac 86bc 8c1b 28bd 7398 b73d a4a3 9abd
00000160: 3a48 bdbc 7d81 423d 0025 1b3e fae4 423c
00000170: 8ba6 9bbc a017 893d 4e59 aa3d 10ea a33c
00000180: a48a 683e daa6 a03c 8906 4a3e 683f 7abd
00000190: 8eb9 643d 88ca ae3d 744e 653d d6c4 52bd
000001a0: b936 c23d d835 67bd c013 dbbd b665 993d
000001b0: b629 d7bd d675 a73d bb38 acbd cdf8 113e
000001c0: 608d 1a3d 4863 40bd f25b 5f3e 7ba3 d73c
000001d0: 0046 37ba 810a d2bc 1d73 67bb cf45 253e
000001e0: 3562 fabd f4ba 243e 71e9 8a3d 5651 96bd
000001f0: cb79 c13c 08d1 813d e1a6 ea3d e13b 9f3d
0.1371545 -0.113531336 0.0722795 -0.10659499 -0.007882335 0.03548499 0.06673913 0.043099392
-0.083213344 0.18832323 0.08987166 0.16363366 0.04762777 0.173347 0.07225625 0.031630073
0.042340964 0.034295842 0.061873063 -0.016587049 0.004523503 -0.083478704 -0.09162404 -0.021226857
0.112318575 -0.07580449 -0.031942245 0.112650864 0.12935849 -0.11292058 0.060692243 0.11838082
-0.006891802 0.08283622 -0.046892926 0.09824733 0.0014091724 0.12863532 0.096103236 0.04888926
0.07371092 -0.001733285 0.013345427 0.060008727 0.032229565 0.08911665 0.097481996 0.19286017
0.14413708 0.11798902 0.12391443 -0.12130192 -0.045167223 -0.0095104845 0.10089191 -0.032489285
0.0854259 0.0163873 0.060207013 0.024416985 -0.070680276 -0.10441741 -0.11277126 0.2117863
-0.029003546 0.10970095 -0.07660646 0.013946772 -0.06376199 -0.069438934 -0.08989628 0.17000826
-0.08764699 0.022473427 -0.07409788 -0.061984807 -0.06787711 -0.05023712 0.016265856 -0.07771395
0.14070757 0.16721478 0.15693183 0.19509353 -0.016439809 -0.041041896 0.08964624 -0.07550743
-0.02310573 0.04748677 0.15150833 0.011895413 -0.019000312 0.06693959 0.08317815 0.02000907
0.22709137 0.019610811 0.19729055 -0.061095625 0.05584102 0.085347235 0.05598302 -0.05145725
0.09483094 -0.056447834 -0.106971264 0.07490103 -0.105060026 0.08176772 -0.08409258 0.14255066
0.037732482 -0.046969682 0.21812418 0.02632307 -0.0006991327 -0.025639774 -0.0035316416 0.16139911
-0.12225763 0.16086942 0.06782807 -0.07339732 0.023617646 0.06338698 0.11457611 0.07775093

model.4.weight f4 [64, 128]
00000000: 8a2b 3cbc 6bb4 b3bd 1654 10bd a110 c1bb
00000010: 9e4b 833c c35b 5a3d d0a0 d3bb 6bf4 e03b
00000020: bcbf dbbc 212e 9a3c 3d47 b6bc 6e27 9e3d
00000030: a9a0 48be 738d 233e 75ea 273e 7202 f53d
00000040: fd3a 9b3d e976 f6bc c8df 69bd e145 86bd
00000050: 8624 a4bd 3032 a2bd 9bc6 a73d 402d 413e
00000060: 86e8 b43d 02cf 4f3d 8352 103c d52c debd
00000070: add7 303e 44be 39bd 21a8 ae3c 82ae e13d
00000080: 83e7 8f3d fd15 debc 6d22 d3be ad17 01be
00000090: 68cd 523d d2c2 0cbe 3c67 20be d394 76bd
000000a0: 4ebd 773d f690 343e b8ad d73c 2333 dabb
000000b0: 1494 d83d d394 893d b79a b23d 9d6b 3c3e
000000c0: 7804 8f3d 73e3 5e3e 4a62 073e 7ba0 e2bd
000000d0: 7888 713c 8dbc 3e3d e5f7 d4bd c8ac d33c
000000e0: 39d9 953d 3af7 413e 201d 0f3e b573 8bbd
000000f0: 216e 33be f757 adbd 138e 893d cb16 ec3d
00000100: 58f7 dbbc b087 23bd cc04 75bd c0c1 c83b
00000110: afc2 8fbd 32bf f9bc 7ac8 6f3d b6c1 913d
00000120: 3090 6cbd c1e1 c23d feef 47bd 67b5 9c3d
00000130: ea16 80bc 80ac 39bd b360 433e 0801 043c
00000140: e3c6 bf3d b801 1e3e 3659 463d 077f 323e
00000150: 7b67 efbc 6c9d e63c 2d54 123e a4ad a7bc
00000160: 12a2 b53c 3481 383e 5b4a 4cbd 985e 1d3e
00000170: b7b5 8fbd d187 893d 4ae4 12be 9cbc c5bc
00000180: 98e6 063e 112b 0c3e acf5 763d 98ec ab3c
00000190: fee0 dd3c 3077 4b3d 40e5 ad3a 2106 6abe
000001a0: f849 563d 9e8e b1bd 1631 3ebd a97a 8fbd
000001b0: 00a4 e7bb 27d1 aebd 2f3b debd 7ff6 e23d
000001c0: 39a9 65be d1f1 33bd 4d4d 463e fc20 91bd
000001d0: 11b5 58bd 10fe 253d cc35 153e 5fb0 55bd
000001e0: 0603 b5bd 2a41 f73d 519b 20bd 8141 0fbe
000001f0: c7e3 443d d701 a9bc b6fd 07be 999e 283e
00000200: 0068 8fba c543 a23d 6415 b8bc b7fa a43d
00000210: f0ec 03bc 2413 25bd 802e 103c 10a1 66bc
00000220: 3edb a9bd 62f1 90bd 9196 b13d dc69 c83c
00000230: 6eaf 473d 32a8 1d3d fa2b 69bd fbd9 803d
00000240: 0105 9bbd 8580 2cbd 1099 a3bb d81c 2abc
00000250: 05a4 36bd 785b 283c bb02 61bd 205a d4bb
00000260: ccc3 8dbc 3088 5ebd f0c6 8bbd 9321 68bd
00000270: 1059 a63b fcaa dcbc d548 9a3d 48fa 7d3c
00000280: bea4 93bd 095f 93bd 4fbe 9bbd 7143 5dbd
00000290: 08e5 72bc a04a 81bb e31a 833d e7a5 8a3d
000002a0: 44dd 9bbc 18f5 59bc ac7a 0dbd 89f6 9a3d
000002b0: 9a7c d7bc 87cf 94bd 78c8 ccbc e01b 6abd
000002c0: ae70 79bd c057 653c 6487 9bbc 56ef 91bd
000002d0: 90dd e9bb 83c1 9e3d 2517 0dbd daed 233d
000002e0: 980c 3a3c f0ad a1bd ec7b 87bc e220 283d
000002f0: 68c1 6dbd 9c30 e93c 7537 9abd a671 ebbc
00000300: c1d2 883d 808a 333a 76d9 b4bd 6c4c c1bc
00000310: 3086 853c f389 b2bd 7d54 46bd 0201 11bd
00000320: 4e63 7fbd 4466 063d 9d31 a1bd 140b bdbc
00000330: 1cf6 73bd c095 d73b a0c2 71bb b989 95bd
00000340: f6bb 6b3d 5858 1cbd 3415 24bd 5897 35bd
00000350: d01d 023c 74e6 823c 1489 e63c c0da 66bc
00000360: 3644 40bd 9e9a 41bd ac88 f83c 3c78 ac3c
00000370: 32bb 8dbd 508f 82bd a4bc 7bbd 5a04 89bd
00000380: d2c4 dabc 091e 32bd 8098 c33c 50a8 b83b
00000390: 634d abbd b472 d03c 261d 0a3d e3b0 31bd
000003a0: 843a ad3c 960e 7e3d 18c7 7e3c 40f5 afbb
000003b0: d3e3 ad3d 915f 9c3d 675e 963d 401a 2fbc
000003c0: c2e6 35bd 11cc 8dbd 6943 1fbd 80e7 9f3c
000003d0: 9eb9 393d e566 a33d 3286 4d3d 02fe 783d
000003e0: 5c2b f33c ea6a 12bd 3ede 4cbd 1043 213c
000003f0: 10ba 94bb ce9e 6b3d 9c44 a2bd 8c7e aabd
-0.01148499 -0.08774646 -0.03523644 -0.005891875 0.016027268 0.053310167 -0.0064583793 0.0068650744
-0.026824825 0.018820824 -0.022250766 0.07722364 -0.19592537 0.15971927 0.16398032 0.11963357
0.075796105 -0.030085998 -0.05709818 -0.06556297 -0.08014779 -0.07919729 0.08192178 0.18864918
0.08833413 0.050734527 0.008808735 -0.10848395 0.17269774 -0.045347467 0.021320404 0.11019613
0.07026579 -0.027110094 -0.41237202 -0.12606688 0.051465422 -0.13746193 -0.15664381 -0.060200524
0.06048327 0.17633423 0.026327953 -0.006658928 0.10575119 0.06717839 0.08720916 0.18400426
0.06983274 0.21766452 0.13221088 -0.110657655 0.014742009 0.046566535 -0.10398845 0.025839224
0.073168226 0.18941966 0.13975954 -0.06809179 -0.1752248 -0.084640436 0.06716552 0.11527785
-0.026851341 -0.039924324 -0.059819028 0.0061266124 -0.07019555 -0.030486677 0.0585408 0.071170256
-0.057754695 0.095157154 -0.04881286 0.07651787 -0.015635926 -0.045330524 0.19079857 0.0080568865
0.093641065 0.15430343 0.048424922 0.1743127 -0.029224148 0.028151236 0.14289923 -0.02046854
0.022172008 0.18018037 -0.0498756 0.15368116 -0.07017081 0.06715358 -0.14344898 -0.024137788
0.13173902 0.13688304 0.060292885 0.02098684 0.027084824 0.049674213 0.0013267174 -0.228539
0.052316636 -0.0866978 -0.04643353 -0.070058174 -0.007069111 -0.085359864 -0.10851132 0.11082172
-0.22427835 -0.043931786 0.19365425 -0.070863694 -0.052907053 0.040525496 0.14571303 -0.052170154
-0.08838467 0.12072976 -0.03921062 -0.13989832 0.048068788 -0.02063076 -0.13280377 0.1646675
-0.0010941029 0.07923082 -0.022471137 0.080556326 -0.008052096 -0.040301457 0.008800149 -0.014076486
-0.0829377 -0.0707729 0.086712964 0.02446454 0.048751287 0.03849048 -0.056926705 0.062915765
-0.07569314 -0.042114753 -0.0049926117 -0.010382853 -0.044590015 0.010275714 -0.054934245 -0.0064804703
-0.017305277 -0.054329097 -0.06825054 -0.056672644 0.005076535 -0.026937 0.07533423 0.015501566
-0.072091565 -0.07195861 -0.07604658 -0.054019395 -0.014825113 -0.0039456636 0.064016126 0.067699246
-0.019026406 -0.013303064 -0.034540817 0.07566554 -0.026304532 -0.07266145 -0.024997935 -0.05715549
-0.060898475 0.013997972 -0.018985458 -0.07125728 -0.007137008 0.07751753 -0.0344459 0.040021755
0.011355542 -0.07894504 -0.016538583 0.041046984 -0.058045775 0.028465562 -0.07530109 -0.028740715
0.06680823 0.0006848946 -0.0883054 -0.023596011 0.016299337 -0.08717718 -0.048420418 -0.03540135
-0.062350564 0.03281237 -0.07870791 -0.023076572 -0.05956088 0.006579131 -0.0036889687 -0.07301659
0.0575523 -0.03817019 -0.040059283 -0.044333786 0.007941678 0.01597903 0.028141536 -0.01409024
-0.04694005 -0.047266595 0.030338608 0.021053426 -0.0692047 -0.06374991 -0.0614592 -0.06690283
-0.02670518 -0.043485675 0.023876429 0.005635299 -0.0836437 0.02544532 0.033719204 -0.043381583
0.021146066 0.06202563 0.015550397 -0.0053698123 0.0849072 0.07635415 0.073422246 -0.010687411
-0.04440952 -0.06923688 -0.038882647 0.019519567 0.045343034 0.0797861 0.050176807 0.060789116
0.029683761 -0.035746492 -0.050016634 0.009842649 -0.004538782 0.057524495 -0.079232424 -0.08324918

model.4.bias f4 [64]
00000000: 1f71 cb3c 1d8f adbd 0207 543b 7c2a 223e
00000010: 2bab ed3d b3ff 043e 5aee 1f3d 3387 8cbd
00000020: 7316 7f3d 949b 01bd 778e cb3c 31c3 103d
00000030: 4538 ae3d f28f 8bbd 8095 fa3d de6e 973d
00000040: da52 abbd 558e de3d e7c9 1f3b a02a 053d
00000050: e80e 34bc 5ae0 8d3d ce79 223d efca 4b3c
00000060: 80d5 7c3d ee32 9c3d 37d4 ce3d 40f7 53bb
00000070: 9cef be3d 584b c03d 018e 953d 3092 38bd
00000080: 7f8a b0bc 0d2f 24bd 1350 503d 2a8d 353d
00000090: f962 e33d 102f 9f3d 4273 9b3d 2cfe 80bd
000000a0: f0c6 213c e49b aebc e4bb a73d ec86 bcbc
000000b0: 007a abbd c641 93bd a615 69bd f820 50bd
000000c0: 22d8 6f3d 3f7c 97bd aad7 92bd 27bc 003e
000000d0: a3c4 8dbd abc4 9d3d b435 993d bf9b ac3d
000000e0: 1e9e 4d3d 207e cdbc 89bd 86bd c2ac 1d3e
000000f0: 08b2 9cbd 9120 2d3e badb 30bd d1c9 de3b
0.024834214 -0.08474562 0.003235281 0.15836519 0.11604913 0.12988167 0.03904567 -0.06861725
0.06227727 -0.03164251 0.024848206 0.0353424 0.08506826 -0.06814565 0.12235546 0.07394193
-0.08365412 0.108669914 0.0024381818 0.032511353 -0.010989882 0.06927557 0.039666943 0.01243852
0.061727047 0.076269016 0.100990705 -0.0032343417 0.093230456 0.09389371 0.07302476 -0.04506129
-0.021550415 -0.040083934 0.050857615 0.044324078 0.11102862 0.07772648 0.07590343 -0.062984794
0.009874091 -0.021314569 0.08190134 -0.023013555 -0.08372879 -0.0719028 -0.05690541 -0.05081269
0.05855573 -0.07396745 -0.07170041 0.12571774 -0.06922271 0.07703527 0.07480946 0.08428144
0.05019962 -0.025084555 -0.0657912 0.15397933 -0.07651144 0.16906954 -0.043178298 0.0067989607

model.6.weight f4 [20, 64]
00000000: cf93 aabc cad7 e1bd c181 afbe 2aea 473e
00000010: 71b4 7ebd fd7c 7e3c 4a8b a5be c614 f8bd
00000020: 4436 b0bd 653c dd3d c75d ab3d a93f 20bd
00000030: 6de4 abbc 778d f1bb 276f 4abe f0da 72be
00000040: 9005 d7bc 4472 fc3d 15e4 95bc 4187 01be
00000050: 3e7f e7bd 62de 333e 0e54 193e 850b a0be
00000060: 3957 863d 1468 773e 30ad 61be acc7 0cbd
00000070: b801 763e a6a7 ddbe 3979 2d3d 9458 b9bc
00000080: 8dca b03d 5b6e e83d 035a 2dbc 8afc 3dbd
00000090: e4d3 5f3d 7421 5fbd ac28 1b3e 28b6 d8bd
000000a0: caff 4dbc f408 19bd 059d 04be 67b8 ec3c
000000b0: 20ce e7bb 0d41 05bc 4d0d b8bd 8a93 203e
000000c0: d89d 2abe 76f0 1d3e dbc0 6d3d da29 d73c
000000d0: b39d edbd d4b1 473d 5106 093e 7c74 a93d
000000e0: db90 853d 0537 8a3b a507 debc 1590 7bbd
000000f0: b943 9e3d 4f99 1abe 743a 6e3e 5700 293e
00000100: 93dc efbd f265 a43d 7e70 17be a66e 1e3e
00000110: edba 34be 5a52 6cbd ce7a 11be f271 84bd
00000120: cb59 b5bd b91c e93d 414d e23b d027 833d
00000130: f21d 2b3e 9b42 6c3d c2c8 bcbe 0304 d3bd
00000140: b8c3 e6bc b915 a0bd 78c9 943c bf4e 6bbd
00000150: 18c1 52bd 1b92 a43d 3bf7 11be fc32 f2bd
00000160: 8c76 633e 342d 3d3e dcc7 29be 7c2e fa3d
00000170: 5b8b 61bc 5a42 c4bd 3fb7 1cbe ee42 01be
00000180: 3f59 d13d 6b57 be3c 4d27 ddbc 6df8 b73d
00000190: 70b0 183d 4465 e03d 6b7c 533e 2e3f fe3d
000001a0: 68be 70bd 4099 043c c912 00bd 52cd 4abe
000001b0: f6c6 a43d 94a6 14bd 8b1a 94bd 409e 053e
000001c0: 8a59 e0bd bec7 533c 55a7 faba b13a 31be
000001d0: 1f44 59be 6214 ddbb d8be ae3c 002a 223e
000001e0: 2262 073e 33de 4c3e eae3 40bd 6ad1 d5be
000001f0: 4296 c03c 1263 f63c 3608 623e 6bcc 653e
00000200: dd30 74be 0079 05ba 155a 16be 1e6a a93d
00000210: df8e a1bd 6621 01be 2060 d1bd 070a b7bd
00000220: a180 4bbd 3ca7 143e bb59 e33d d9ad f2bd
00000230: e919 3b3e db94 6cbd 2b5b 3cbe 7222 24be
00000240: 3e9b e8bd 2e5a 99be 2e12 4fbe 2448 ce3c
00000250: 0e6b e13d 2f83 c13d f288 56be 9944 1ebe
00000260: 9c78 b43d beab e23d dfab 10be 6489 db3d
00000270: f156 143e 848a 84bd 7951 11be 9eaa 87bc
00000280: 9430 d03d 41d2 f6bc 7aee ccbd 914a c93d
00000290: 3f27 1c3d e1ec ec3a db62 a23e c458 eb3d
000002a0: fa22 9fbd f08a 263d 7220 22bd 5497 24be
000002b0: ce96 99bd 470c 8fbd 8e81 9f3d 37f0 363d
000002c0: 1a18 e4bc df86 c83d 1f02 91bd 310b 743d
000002d0: c016 113e b1e9 dc3d 4e7c 32be 21e7 83be
000002e0: a53f 463e 4ae8 ae3e 7876 a53d 5d66 0fbe
000002f0: c128 3a3e 1ebd 9ebd f856 4a3e b268 493e
00000300: 01ff fa3c 9205 b63d 433d 093e 6dfb 92bd
00000310: 0d27 563e dfd3 5b3d e2f2 713d 938e d13d
00000320: 6a62 3c3d 77fb 94be 2cf9 b6be 5280 e83d
00000330: 1fa3 11be c205 093c efe4 e83b b808 90be
00000340: f62b e93d fd7b 833d 177f 39be 471b 5c3e
00000350: 9006 7fbc bfac b0be 7b21 7a3e affa 763d
00000360: e676 afbe 6599 66be a506 2e3e 06c3 99bd
00000370: 55d3 72be f27d 633d 2c06 1d3e df32 2d3e
00000380: bfa5 cbbd b610 d73c 9e57 473d e7b4 16bd
00000390: b1bd 8e3e f39a a9be c7a4 ddbd 7455 dabd
000003a0: c1cb d43d 64fd 4cbd b2f8 d838 6fa7 4fbe
000003b0: c0be 65bb 8e94 923c 11f4 7d3d 7259 8bbd
000003c0: 6c33 59bc fbe3 80be f9f9 1f3b 2a42 843d
000003d0: f321 a1be 1d71 863d 74bd 2c3d 30c4 7e3d
000003e0: 1e50 c7bb 278b 18be fba5 df3c 280d 753e
000003f0: 5ee2 803d 0c8b 6b3d d48f 55be a6db b6be
-0.020822434 -0.110274866 -0.34278682 0.1952292 -0.0621838 0.015532729 -0.32332832 -0.12113337
-0.086041 0.10802535 0.08367496 -0.03912321 -0.020982945 -0.0073716003 -0.19768964 -0.2371633
-0.02624777 0.12326482 -0.018297235 -0.12649252 -0.113035664 0.17565301 0.1497347 -0.3125879
0.06559605 0.24160796 -0.22038722 -0.03437011 0.24024093 -0.43291968 0.042351935 -0.022625245
0.086323835 0.11349174 -0.0105805425 -0.04638342 0.054645434 -0.054475263 0.15152234 -0.105816185
-0.012573192 -0.037362054 -0.12950523 0.028896524 -0.0070741326 -0.008133185 -0.08986912 0.15681282
-0.16661775 0.1542376 0.05804525 0.026265074 -0.11602344 0.048753574 0.13381316 0.08274171
0.065217696 0.0042179846 -0.027103255 -0.061416704 0.07727761 -0.15097545 0.23264486 0.16504036
-0.11711993 0.08027257 -0.14789006 0.15471897 -0.17649432 -0.057695724 -0.14207003 -0.06467046
-0.08855017 0.113824315 0.006906182 0.06404078 0.16710642 0.057680707 -0.36871916 -0.103034995
-0.028169498 -0.07816643 0.018162474 -0.057448145 -0.05145368 0.0803568 -0.14254467 -0.11826131
0.22213191 0.18474275 -0.16580147 0.122158974 -0.013766135 -0.09582968 -0.15304278 -0.12623188
0.102221005 0.023235044 -0.02699628 0.0898293 0.03727764 0.10956815 0.2065293 0.12414394
-0.058775336 0.008093178 -0.031267915 -0.19804886 0.08045761 -0.036291674 -0.07231625 0.13048649
-0.10954578 0.01292604 -0.0019123355 -0.17307545 -0.21217392 -0.0067468146 0.021331236 0.15836334
0.13221028 0.20006637 -0.047092356 -0.41761333 0.023509149 0.030076537 0.22073445 0.2244126
-0.23846765 -0.0005091578 -0.14682801 0.08272193 -0.078885786 -0.12610397 -0.102234125 -0.089374594
-0.049683217 0.1451692 0.11101099 -0.11849565 0.18271603 -0.057759147 -0.18394153 -0.16028765
-0.11357735 -0.29951614 -0.20221779 0.025180884 0.11006747 0.094488494 -0.20950678 -0.15455855
0.08812067 0.110679135 -0.14128064 0.107195646 0.1448629 -0.06471732 -0.14191236 -0.016560849
0.101655155 -0.030129554 -0.10006423 0.098286755 0.038123365 0.0018075967 0.31716046 0.1149154
-0.07770343 0.040659845 -0.039581724 -0.16073352 -0.07499467 -0.069847636 0.077883825 0.04466268
-0.027843524 0.097913496 -0.07080483 0.059580985 0.14168835 0.107867606 -0.17430231 -0.25762275
0.19360216 0.34161597 0.08079237 -0.14003892 0.18179609 -0.07750915 0.19759738 0.19668844
0.030639173 0.08887781 0.13402276 -0.07176862 0.20913334 0.053668853 0.05906952 0.10232272
0.045992292 -0.29098102 -0.35736978 0.113526 -0.14222382 0.008363189 0.007107369 -0.28131652
0.11385338 0.06420133 -0.18114887 0.2149478 -0.0155655295 -0.34506795 0.24426834 0.060297664
-0.342704 -0.22519453 0.16994722 -0.07507901 -0.2371343 0.055540033 0.15334386 0.16913937
-0.09943723 0.026253086 0.048667543 -0.036793616 0.27879098 -0.3312603 -0.108224444 -0.1066083
0.103904255 -0.05004634 0.00010346006 -0.20278715 -0.0035056323 0.017893102 0.062000338 -0.0680417
-0.013256889 -0.25173935 0.002441047 0.06457932 -0.31471214 0.065645434 0.042172864 0.062198818
-0.0060825488 -0.14896832 0.027300825 0.239308 0.06293176 0.057505652 -0.20855647 -0.35714453

model.6.bias f4 [20]
00000000: 0887 493d 3ab7 9e3d 98c8 98bc c1bb 913d
00000010: 3588 f53d a203 843d eae7 093d 3f34 b23d
00000020: a96f ba3d 3a7e bebd 7bd5 ccbd cfeb 8abd
00000030: 704c 483c 627a 6e3d 20d9 8f3d c2d4 b33d
00000040: fbaf ac3d a603 b03c 9cc6 d9bd 4faa a1bd
0.04920104 0.077497914 -0.018650338 0.07115889 0.1198887 0.064460054 0.033668436 0.087013714
0.09103329 -0.093014196 -0.10001656 -0.06783258 0.012225255 0.058222182 0.07023835 0.08780815
0.08432003 0.021486115 -0.10633585 -0.07893812
